…
Skipping registering GPU devices...
2021-11-21 05:38:40.867212: I tensorflow/core/platform/cpu_feature_guard.cc:151] This TensorFlow binary is optimized with oneAPI Deep Neural Network Library (oneDNN) to use the following CPU instructions in performance-critical operations:  AVX2 FMA
To enable them in other operations, rebuild TensorFlow with the appropriate compiler flags.
Model: "sequential"
_________________________________________________________________
 Layer (type)                Output Shape              Param #
=================================================================
 conv1d (Conv1D)             (None, 7, 64)             1792
 max_pooling1d (MaxPooling1D  (None, 5, 64)            0
 )
 batch_normalization (BatchN  (None, 5, 64)            256
 ormalization)
 conv1d_1 (Conv1D)           (None, 5, 64)             24640
 max_pooling1d_1 (MaxPooling  (None, 3, 64)            0
 1D)
 batch_normalization_1 (Batc  (None, 3, 64)            256
 hNormalization)
 dropout (Dropout)           (None, 3, 64)             0
 flatten (Flatten)           (None, 192)               0
 dense (Dense)               (None, 256)               49408
 dense_1 (Dense)             (None, 64)                16448
 dense_2 (Dense)             (None, 32)                2080
 dense_3 (Dense)             (None, 32)                1056
 dropout_1 (Dropout)         (None, 32)                0
 dense_4 (Dense)             (None, 2)                 66
=================================================================
Total params: 96,002
Trainable params: 95,746
Non-trainable params: 256
_________________________________________________________________
compiling model
Epoch 1/1000
38/38 [==============================] - 1s 1ms/step - loss: 0.0763 - mse: 0.0763 - mae: 0.1811
Epoch 2/1000
38/38 [==============================] - 0s 1ms/step - loss: 0.0311 - mse: 0.0311 - mae: 0.1283
…
