Model: "sequential"
_________________________________________________________________
 Layer (type)                Output Shape              Param #
=================================================================
 conv1d (Conv1D)             (None, 7, 64)             1792
 max_pooling1d (MaxPooling1D  (None, 5, 64)            0
 )
 batch_normalization (BatchN  (None, 5, 64)            256
 ormalization)
 conv1d_1 (Conv1D)           (None, 5, 64)             24640
 max_pooling1d_1 (MaxPooling  (None, 3, 64)            0
 1D)
 batch_normalization_1 (Batc  (None, 3, 64)            256
 hNormalization)
 dropout (Dropout)           (None, 3, 64)             0
 flatten (Flatten)           (None, 192)               0
 dense (Dense)               (None, 256)               49408
 dense_1 (Dense)             (None, 64)                16448
 dense_2 (Dense)             (None, 48)                3120
 dense_3 (Dense)             (None, 32)                1568
 dropout_1 (Dropout)         (None, 32)                0
 dense_4 (Dense)             (None, 2)                 66
=================================================================
Total params: 97,554
Trainable params: 97,298
Non-trainable params: 256
_________________________________________________________________
compiling model
Epoch 1/1000
38/38 [==============================] - 1s 1ms/step - loss: 0.1070 - mse: 0.1070 - mae: 0.2246
Epoch 2/1000
38/38 [==============================] - 0s 1ms/step - loss: 0.0420 - mse: 0.0420 - mae: 0.1413
…
