…
Skipping registering GPU devices...
2021-11-21 05:31:44.617064: I tensorflow/core/platform/cpu_feature_guard.cc:151] This TensorFlow binary is optimized with oneAPI Deep Neural Network Library (oneDNN) to use the following CPU instructions in performance-critical operations:  AVX2 FMA
To enable them in other operations, rebuild TensorFlow with the appropriate compiler flags.
Model: "sequential"
_________________________________________________________________
 Layer (type)                Output Shape              Param #
=================================================================
 conv1d (Conv1D)             (None, 7, 64)             1792
 max_pooling1d (MaxPooling1D  (None, 5, 64)            0
 )
 batch_normalization (BatchN  (None, 5, 64)            256
 ormalization)
 conv1d_1 (Conv1D)           (None, 5, 128)            49280
 max_pooling1d_1 (MaxPooling  (None, 3, 128)           0
 1D)
 batch_normalization_1 (Batc  (None, 3, 128)           512
 hNormalization)
 dropout (Dropout)           (None, 3, 128)            0
 flatten (Flatten)           (None, 384)               0
 dense (Dense)               (None, 256)               98560
 dense_1 (Dense)             (None, 128)               32896
 dense_2 (Dense)             (None, 64)                8256
 dense_3 (Dense)             (None, 32)                2080
 dropout_1 (Dropout)         (None, 32)                0
 dense_4 (Dense)             (None, 2)                 66
=================================================================
Total params: 193,698
Trainable params: 193,314
Non-trainable params: 384
_________________________________________________________________
compiling model
Epoch 1/1000
38/38 [==============================] - 1s 2ms/step - loss: 0.1367 - mse: 0.1367 - mae: 0.2647
Epoch 2/1000
38/38 [==============================] - 0s 1ms/step - loss: 0.1281 - mse: 0.1281 - mae: 0.2295
…
